…
pectral_norm=False, dataset_path='./data/shapenet.hdf5', categories=['airplane'], scale_mode='shape_unit', train_batch_size=128, val_batch_size=64, lr=0.002, weight_decay=0, max_grad_norm=10, end_lr=0.0001, sched_start_epoch=200000, sched_end_epoch=400000, seed=2021, logging=True, log_root='./logs_gen', device='cuda', max_iters=400000, val_freq=10000, test_freq=30000, test_size=400, tag=None)
[2024-06-09 01:51:45,899::train::INFO] Loading datasets...
[2024-06-09 01:51:47,193::train::INFO] Building model...
[2024-06-09 01:51:48,046::train::INFO] FlowVAE(
  (encoder): PointNetEncoder(
    (conv1): Conv1d(3, 128, kernel_size=(1,), stride=(1,))
    (conv2): Conv1d(128, 128, kernel_size=(1,), stride=(1,))
    (conv3): Conv1d(128, 256, kernel_size=(1,), stride=(1,))
    (conv4): Conv1d(256, 512, kernel_size=(1,), stride=(1,))
    (bn1): BatchNorm1d(128, eps=1e-05, momentum=0.1, affine=True, track_running_stats=True)
    (bn2): BatchNorm1d(128, eps=1e-05, momentum=0.1, affine=True, track_running_stats=True)
    (bn3): BatchNorm1d(256, eps=1e-05, momentum=0.1, affine=True, track_running_stats=True)
    (bn4): BatchNorm1d(512, eps=1e-05, momentum=0.1, affine=True, track_running_stats=True)
    (fc1_m): Linear(in_features=512, out_features=256, bias=True)
    (fc2_m): Linear(in_features=256, out_features=128, bias=True)
    (fc3_m): Linear(in_features=128, out_features=256, bias=True)
    (fc_bn1_m): BatchNorm1d(256, eps=1e-05, momentum=0.1, affine=True, track_running_stats=True)
    (fc_bn2_m): BatchNorm1d(128, eps=1e-05, momentum=0.1, affine=True, track_running_stats=True)
    (fc1_v): Linear(in_features=512, out_features=256, bias=True)
    (fc2_v): Linear(in_features=256, out_features=128, bias=True)
    (fc3_v): Linear(in_features=128, out_features=256, bias=True)
    (fc_bn1_v): BatchNorm1d(256, eps=1e-05, momentum=0.1, affine=True, track_running_stats=True)
    (fc_bn2_v): BatchNorm1d(128, eps=1e-05, momentum=0.1, affine=True, track_running_stats=True)
  )
  (flow): SequentialFlow(
    (chain): ModuleList(
      (0-13): 14 x CouplingLayer(
        (net_s_t): Sequential(
          (0): Linear(in_features=128, out_features=256, bias=True)
          (1): ReLU(inplace=True)
          (2): Linear(in_features=256, out_features=256, bias=True)
          (3): ReLU(inplace=True)
          (4): Linear(in_features=256, out_features=256, bias=True)
        )
      )
    )
  )
  (diffusion): DiffusionPoint(
    (net): PointwiseNet(
      (layers): ModuleList(
        (0): ConcatSquashLinear(
          (_layer): Linear(in_features=3, out_features=128, bias=True)
          (_hyper_bias): Linear(in_features=259, out_features=128, bias=False)
          (_hyper_gate): Linear(in_features=259, out_features=128, bias=True)
        )
        (1): ConcatSquashLinear(
          (_layer): Linear(in_features=128, out_features=256, bias=True)
          (_hyper_bias): Linear(in_features=259, out_features=256, bias=False)
          (_hyper_gate): Linear(in_features=259, out_features=256, bias=True)
        )
        (2): ConcatSquashLinear(
          (_layer): Linear(in_features=256, out_features=512, bias=True)
          (_hyper_bias): Linear(in_features=259, out_features=512, bias=False)
          (_hyper_gate): Linear(in_features=259, out_features=512, bias=True)
        )
        (3): ConcatSquashLinear(
          (_layer): Linear(in_features=512, out_features=256, bias=True)
          (_hyper_bias): Linear(in_features=259, out_features=256, bias=False)
          (_hyper_gate): Linear(in_features=259, out_features=256, bias=True)
        )
        (4): ConcatSquashLinear(
          (_layer): Linear(in_features=256, out_features=128, bias=True)
          (_hyper_bias): Linear(in_features=259, out_features=128, bias=False)
          (_hyper_gate): Linear(in_features=259, out_features=128, bias=True)
        )
        (5): ConcatSquashLinear(
          (_layer): Linear(in_features=128, out_features=3, bias=True)
          (_hyper_bias): Linear(in_features=259, out_features=3, bias=False)
          (_hyper_gate): Linear(in_features=259, out_features=3, bias=True)
        )
      )
    )
    (var_sched): VarianceSchedule()
  )
)
[2024-06-09 01:51:52,503::train::INFO] Start training...
[2024-06-09 01:52:03,299::train::INFO] [Train] Iter 0050 | Loss 60.513580 | Grad 0.3280 | KLWeight 0.0010
[2024-06-09 01:52:07,608::train::INFO] [Train] Iter 0100 | Loss 60.456017 | Grad 0.2639 | KLWeight 0.0010
[2024-06-09 01:52:11,915::train::INFO] [Train] Iter 0150 | Loss 60.443085 | Grad 0.2644 | KLWeight 0.0010
…
