…
t.hdf5', categories=['airplane', 'chair'], scale_mode='shape_unit', train_batch_size=128, val_batch_size=64, lr=0.002, weight_decay=0, max_grad_norm=10, end_lr=0.0001, sched_start_epoch=200000, sched_end_epoch=400000, seed=2020, logging=True, log_root='./logs_gen', device='cuda', max_iters=30000, val_freq=1000, test_freq=10000, test_size=400, tag='para_test', parallel=True, device_list='0,1')
[2024-06-10 23:19:07,104::train::INFO] Loading datasets...
[2024-06-10 23:19:09,935::train::INFO] Building model...
[2024-06-10 23:19:10,365::train::INFO] FlowVAE(
  (encoder): PointNetEncoder(
    (conv1): Conv1d(3, 128, kernel_size=(1,), stride=(1,))
    (conv2): Conv1d(128, 128, kernel_size=(1,), stride=(1,))
    (conv3): Conv1d(128, 256, kernel_size=(1,), stride=(1,))
    (conv4): Conv1d(256, 512, kernel_size=(1,), stride=(1,))
    (bn1): BatchNorm1d(128, eps=1e-05, momentum=0.1, affine=True, track_running_stats=True)
    (bn2): BatchNorm1d(128, eps=1e-05, momentum=0.1, affine=True, track_running_stats=True)
    (bn3): BatchNorm1d(256, eps=1e-05, momentum=0.1, affine=True, track_running_stats=True)
    (bn4): BatchNorm1d(512, eps=1e-05, momentum=0.1, affine=True, track_running_stats=True)
    (fc1_m): Linear(in_features=512, out_features=256, bias=True)
    (fc2_m): Linear(in_features=256, out_features=128, bias=True)
    (fc3_m): Linear(in_features=128, out_features=256, bias=True)
    (fc_bn1_m): BatchNorm1d(256, eps=1e-05, momentum=0.1, affine=True, track_running_stats=True)
    (fc_bn2_m): BatchNorm1d(128, eps=1e-05, momentum=0.1, affine=True, track_running_stats=True)
    (fc1_v): Linear(in_features=512, out_features=256, bias=True)
    (fc2_v): Linear(in_features=256, out_features=128, bias=True)
    (fc3_v): Linear(in_features=128, out_features=256, bias=True)
    (fc_bn1_v): BatchNorm1d(256, eps=1e-05, momentum=0.1, affine=True, track_running_stats=True)
    (fc_bn2_v): BatchNorm1d(128, eps=1e-05, momentum=0.1, affine=True, track_running_stats=True)
  )
  (flow): SequentialFlow(
    (chain): ModuleList(
      (0-13): 14 x CouplingLayer(
        (net_s_t): Sequential(
          (0): Linear(in_features=128, out_features=256, bias=True)
          (1): ReLU(inplace=True)
          (2): Linear(in_features=256, out_features=256, bias=True)
          (3): ReLU(inplace=True)
          (4): Linear(in_features=256, out_features=256, bias=True)
        )
      )
    )
  )
  (diffusion): DiffusionPoint(
    (net): PointwiseNet(
      (layers): ModuleList(
        (0): ConcatSquashLinear(
          (_layer): Linear(in_features=3, out_features=128, bias=True)
          (_hyper_bias): Linear(in_features=259, out_features=128, bias=False)
          (_hyper_gate): Linear(in_features=259, out_features=128, bias=True)
        )
        (1): ConcatSquashLinear(
          (_layer): Linear(in_features=128, out_features=256, bias=True)
          (_hyper_bias): Linear(in_features=259, out_features=256, bias=False)
          (_hyper_gate): Linear(in_features=259, out_features=256, bias=True)
        )
        (2): ConcatSquashLinear(
          (_layer): Linear(in_features=256, out_features=512, bias=True)
          (_hyper_bias): Linear(in_features=259, out_features=512, bias=False)
          (_hyper_gate): Linear(in_features=259, out_features=512, bias=True)
        )
        (3): ConcatSquashLinear(
          (_layer): Linear(in_features=512, out_features=256, bias=True)
          (_hyper_bias): Linear(in_features=259, out_features=256, bias=False)
          (_hyper_gate): Linear(in_features=259, out_features=256, bias=True)
        )
        (4): ConcatSquashLinear(
          (_layer): Linear(in_features=256, out_features=128, bias=True)
          (_hyper_bias): Linear(in_features=259, out_features=128, bias=False)
          (_hyper_gate): Linear(in_features=259, out_features=128, bias=True)
        )
        (5): ConcatSquashLinear(
          (_layer): Linear(in_features=128, out_features=3, bias=True)
          (_hyper_bias): Linear(in_features=259, out_features=3, bias=False)
          (_hyper_gate): Linear(in_features=259, out_features=3, bias=True)
        )
      )
    )
    (var_sched): VarianceSchedule()
  )
)
[2024-06-10 23:19:13,324::train::INFO] Start training...
Generate:   0%|          | 0/7 [00:00<?, ?it/s]Generate:  14%|█▍        | 1/7 [00:01<00:09,  1.56s/it]Generate:  29%|██▊       | 2/7 [00:03<00:07,  1.56s/it]Generate:  43%|████▎     | 3/7 [00:04<00:06,  1.55s/it]Generate:  57%|█████▋    | 4/7 [00:06<00:04,  1.55s/it]Generate:  71%|███████▏  | 5/7 [00:07<00:03,  1.55s/it]Generate:  86%|████████▌ | 6/7 [00:09<00:01,  1.55s/it]Generate: 100%|██████████| 7/7 [00:10<00:00,  1.55s/it]Generate: 100%|██████████| 7/7 [00:10<00:00,  1.55s/it]
…
